data.pth (torch, 6058 bytes, 6 tensors)

l1.weight f4 [8, 64]
-0.22789541 0.8581881 0.09024519 -0.12418496 0.5449457 -0.10510129 -0.35921293 -0.106287576
0.52647406 0.7466958 -0.40723372 -0.51430666 0.5188624 -0.64180064 0.73137176 -0.2773167
-0.4313569 0.1416709 0.5208281 0.46066746 0.29862398 1.1499883 0.093375534 -0.15432446
-0.3910676 -0.431356 -0.13326429 -0.4313473 -0.43143824 0.42495662 0.40926486 0.36802807
-0.19535442 0.41596502 0.13517953 -0.087641865 -0.08576787 0.15087543 0.27666947 0.60707676
0.48735514 0.029379623 0.62200314 0.7873981 -0.04284416 0.20212214 0.4608411 0.51086533
0.58507764 0.3762953 0.060265142 -0.17405091 -0.4313807 0.01120108 -0.13089722 0.4891369
-0.59415436 0.105665855 -0.005134182 0.6918816 -0.0365069 0.4186099 -0.38596517 -0.12385765
-0.117119275 0.6172716 0.46051905 0.17146783 0.42300457 -0.1947351 -0.4695272 -0.07667404
0.49625552 0.44214115 0.5527574 0.16509609 0.44477805 -0.5352766 0.65378726 -0.1890068
0.18682541 0.53633904 -0.21747378 0.43180412 0.38269874 0.7594537 0.31295168 -0.28517312
0.46131542 -0.47419867 -0.052378953 -0.47425342 -0.47420403 0.41538194 0.37813747 -0.103449754
-0.17183603 -0.087837934 0.62429625 0.36672217 -0.07366803 0.45356485 0.15383822 -0.31712493
0.44266552 -0.08540868 -0.23501724 -0.31264982 0.4035653 0.60470265 0.26320308 -0.20907468
-0.13499415 0.14091223 0.38867062 -0.69359624 -0.46748024 -0.23557416 -0.1076342 0.4471112
-0.60403705 0.38311943 0.47004902 0.8051006 0.6012495 0.6018992 0.2409161 0.25065625
0.14694262 -0.20100994 -0.24958302 0.55504745 0.7656898 0.45859945 0.527217 0.20623724
-0.19576302 -0.36023942 -0.7782752 0.71250874 -0.1668213 0.23747335 -0.49709198 0.5437168
0.8072923 0.7034331 0.1100282 -0.06427948 -0.24346851 -0.14021601 -0.15325414 0.50259584
-0.75296193 0.6482416 0.13302587 0.79875815 0.61250615 -0.12104204 -0.052716706 0.6810034
0.57381445 0.057419997 -0.49315384 -0.5231115 0.17408945 -0.37844864 0.071947485 0.18806976
-0.21101308 0.26442552 0.073657855 0.13089645 -0.61112505 -0.31614378 0.0017841571 0.13232145
0.12261151 -0.10979441 0.06263023 -0.61340976 -0.4689206 0.13306186 0.46192765 -0.19462115
0.10743848 0.5434649 0.93588376 -0.30821067 0.77726245 0.33167666 0.80451065 0.37281725
0.6694936 0.088506274 0.09654402 -0.27445972 0.70255774 0.48446354 0.30817208 0.43282288
-0.1578434 0.6620734 0.09366913 -0.37836674 -0.14877695 0.59746987 0.29225418 0.49593183
-0.5551623 -0.14246035 -0.06734105 0.30086017 0.30953696 -0.5555047 -0.15626623 0.6180084
0.067948535 0.76391673 0.45768544 0.76245034 0.7077834 0.48092222 0.39502445 0.8916113
0.50772494 -0.016918594 -0.22321536 0.2705558 0.46085557 -0.21414655 0.16675903 -0.011071454
-0.19210313 0.37934318 -0.12545866 0.035170928 0.11202515 -0.32855958 -0.0044205645 0.016950626
0.0050884397 0.23190135 -0.24632798 1.0919645 0.8043151 0.3734968 0.482577 -0.14083306
0.69580877 0.3276506 -0.08479188 -0.7594466 -0.61071366 0.4684351 -0.15336347 0.09979013
00000000: 6a5d 69be 37b2 5b3f 78d2 b83d af54 febd
00000010: 9081 0b3f 583f d7bd c2ea b7be 4dad d9bd
00000020: 01c7 063f 7527 3f3f f080 d0be 9aa9 03bf
00000030: 2bd4 043f 0c4d 24bf 2e3b 3b3f 74fc 8dbe
00000040: d0da dcbe 2d12 113e fe54 053f 9bdc eb3e
00000050: 3ee5 983e d132 933f ac3b bf3d 3b07 1ebe
00000060: 033a c8be b2da dcbe 6f76 08be 8ed9 dcbe
00000070: 79e5 dcbe ea93 d93e 2a8b d13e 2d6e bc3e
00000080: fd0a 48be 5ef9 d43e 816c 0a3e 947d b3bd
00000090: 11a7 afbd 177f 1a3e 9fa7 8d3e 6269 1b3f
000000a0: 9d86 f93e 89ad f03c 993b 1f3f ec92 493f
000000b0: 5c7d 2fbd 1bf9 4e3e 5df3 eb3e 12c8 023f
000000c0: a6c7 153f c7a9 c03e 95d8 763d 673a 32be
000000d0: eedd dcbe bc84 373c ec09 06be 2770 fa3e
000000e0: 801a 18bf 5767 d83d a43c a8bb 271f 313f
000000f0: 4288 15bd 0954 d63e 3a9d c5be 14a9 fdbd
00000100: 3bdc efbd 8305 1e3f 27c9 eb3e 4395 2f3e
00000110: 0e94 d83e a368 47be df65 f0be 4707 9dbd
00000120: 3415 fe3e 5360 e23e 8281 0d3f f30e 293e
00000130: f3b9 e33e e307 09bf 9a5e 273f 008b 41be
00000140: 294f 3f3e 844d 093f 72b1 5ebe 6e15 dd3e
00000150: 17f1 c33e 8f6b 423f 343b a03e 3602 92be
00000160: 8931 ec3e 2bca f2be 508b 56bd 58d1 f2be
00000170: dfca f2be f1ac d43e 3c9b c13e 77dd d3bd
00000180: c9f5 2fbe 60e4 b3bd e1d1 1f3f 02c3 bb3e
00000190: 44df 96bd a739 e83e c487 1d3e 335e a2be
000001a0: 0ea5 e23e bfea aebd 5ca8 70be a313 a0be
000001b0: 1ca0 ce3e cbcd 1a3f 8ec2 863e ac17 56be
000001c0: e83b 0abe 4c4b 103e d6ff c63e 868f 31bf
000001d0: 9259 efbe 5a3a 71be 526f dcbd c2eb e43e
000001e0: 2ca2 1abf 3b28 c43e 44aa f03e 131b 4e3f
000001f0: 7deb 193f 1116 1a3f b6b2 763e 0456 803e
00000200: 2078 163e 8dd5 4dbe b192 7fbe 9717 0e3f
00000210: 3f04 443f 8ccd ea3e b1f7 063f db2f 533e
00000220: 1a76 48be 4d71 b8be 0b3d 47bf f966 363f
00000230: 34d3 2abe 372c 733e d782 febe 0631 0b3f
00000240: b5aa 4e3f 3114 343f 7756 e13d f6a4 83bd
00000250: cf4f 79be c994 0fbe a7ee 1cbe 1faa 003f
00000260: 1dc2 40bf 29f3 253f ef37 083e 6a7b 4c3f
00000270: 34cd 1c3f e4e4 f7bd 79ed 57bd 3d56 2e3f
00000280: 81e5 123f 3b31 6b3d a97e fcbe a3ea 05bf
00000290: 8144 323e 05c4 c1be 3459 933d 5c95 403e
000002a0: d013 58be c862 873e eed9 963d b809 063e
000002b0: b172 1cbf 99dd a1be 61da e93a 467f 073e
000002c0: be1b fb3d e4db e0bd 4744 803d 6c08 1dbf
000002d0: 5c16 f0be 5e41 083e c881 ec3e c44a 47be
000002e0: b508 dc3d 8420 0b3f 1496 6f3f cacd 9dbe
000002f0: acfa 463f 86d1 a93e 69f4 4d3f e7e1 be3e
00000300: ef63 2b3f c742 b53d dfb8 c53d fc85 8cbe
00000310: d3da 333f 9b0b f83e bbc8 9d3e f69a dd3e
00000320: b3a1 21be a47d 293f 9ad5 bf3d 49b9 c1be
00000330: fc58 18be c9f3 183f 57a2 953e c7ea fd3e
00000340: 1e1f 0ebf 20e1 11be 1bea 89bd 580a 9a3e
00000350: a17b 9e3e 8e35 0ebf 4104 20be cc35 1e3f
00000360: 9a28 8b3d 0c90 433f bf55 ea3e f22f 433f
00000370: 4b31 353f 703b f63e a540 ca3e a340 643f
00000380: 43fa 013f dd98 8abc 9192 64be 4a86 8a3e
00000390: 43f5 eb3e 3c49 5bbe e1c2 2a3e 0b65 35bc
000003a0: afb6 44be 4539 c23e 3c78 00be 640f 103d
000003b0: 716d e53d f638 a8be 62da 90bb 0adc 8a3c
000003c0: edbc a63b 8c77 6d3e 673d 7cbe 7ec5 8b3f
000003d0: 98e7 4d3f f93a bf3e 5514 f73e 8b36 10be
000003e0: 8620 323f d2c1 a73e 5da7 adbd 186b 42bf
000003f0: bb57 1cbf bad6 ef3e 500b 1dbe c55e cc3d

l1.bias f4 [8]
0.4313317 0.47417733 1.0585729 0.55529106 0.26586318 0.8343882 0.7637223 1.0739664
00000000: 82d7 dc3e 5fc7 f23e 517f 873f 8e27 0e3f
00000010: 381f 883e 779a 553f 4e83 433f bb77 893f

l2.weight f4 [8, 8]
-0.009388842 0.71285504 1.3139848 -0.87540543 -0.5789164 1.6470969 1.2670829 -0.45523787
1.2714281 0.92797464 -0.6239334 -0.21978712 -0.25511414 1.1251054 0.47141543 -0.89665467
0.09333274 0.30581406 -0.9564666 1.6786237 0.08639345 -0.02369948 0.6724621 0.17186528
0.071085244 -0.058433756 0.5648451 -0.1225254 -1.2074999 -0.37666667 -0.024102727 1.8861513
0.38367265 1.4723411 -0.36153558 -0.3732849 1.0216817 -0.41252503 1.5988714 1.4302953
1.1098061 0.69179106 0.56228375 -0.36172163 0.99092305 0.19781534 -0.13359927 -0.34064075
-1.2496785 -0.85900444 1.1219617 1.4461478 0.0316913 1.335087 1.1765065 0.21970963
0.6510952 -0.51762056 0.62719995 1.3131266 1.2110713 0.6328613 -0.6585719 0.29844537
00000000: a8d3 19bc ab7d 363f a730 a83f 921a 60bf
00000010: dd33 14bf 12d4 d23f c62f a23f f014 e9be
00000020: 28be a23f bf8f 6d3f 19ba 1fbf e00f 61be
00000030: 529e 82be 7403 903f 5d5d f13e 298b 65bf
00000040: 3c25 bf3d a993 9c3e ffda 74bf 24dd d63f
00000050: 0def b03d 6925 c2bc 7a26 2c3f 74fd 2f3e
00000060: 2495 913d 3c58 6fbd b099 103f 99ee fabd
00000070: 5b8f 9abf 74da c0be 1573 c5bc 686d f13f
00000080: be70 c43e ac75 bc3f 311b b9be 331f bfbe
00000090: 77c6 823f 7b36 d3be d1a7 cc3f eb13 b73f
000000a0: 200e 8e3f 3819 313f d4f1 0f3f 9433 b9be
000000b0: 22ad 7d3f 1b90 4a3e 3fce 08be 7768 aebe
000000c0: 77f5 9fbf b7e7 5bbf 719c 8f3f 5f1b b93f
000000d0: bdce 013d 21e4 aa3f c497 963f 90fb 603e
000000e0: 2dae 263f c882 04bf 2d90 203f 8814 a83f
000000f0: 6204 9b3f 3303 223f 2b98 28bf d5cd 983e

l2.bias f4 [8]
0.47359484 0.47619548 0.06653416 1.0877882 0.27463052 -0.532558 0.7711153 -0.10981126
00000000: 067b f23e e5cf f33e 1043 883d a53c 8b3f
00000010: 5f9c 8c3e b955 08bf d067 453f bae4 e0bd

l3.weight f4 [11, 8]
0.3052585 0.6156308 -2.387569 -0.7472477 -1.0275865 0.26145762 -0.5965917 0.5064629
0.4080796 0.5844755 -0.00587481 -1.3819444 0.27165598 0.22236088 -1.0097946 -1.2469672
-0.80690473 0.06334241 0.4443703 -1.0284421 0.5023957 0.41463354 -1.1122736 0.17043546
-1.24106 -1.1998417 0.14847095 -1.0547274 0.44279104 -0.032997392 0.1464861 0.6012818
0.03730565 0.33528808 -2.1875713 0.42786276 0.29807973 0.2885277 -1.0501639 -0.10379404
-1.2466855 -0.925316 0.75016314 0.77720267 -0.211218 -0.69469965 0.29583034 -0.17708793
0.42232883 0.316957 1.1470473 -0.7533582 0.28204358 -1.6675147 0.1708529 -2.1565266
0.46589622 -0.9425613 -0.61346805 0.007432811 -1.6001959 -1.1071427 0.6326119 0.2508668
-0.55277604 -1.0647945 0.20019615 0.7018929 0.7269207 -1.2225161 -0.84499365 -1.5094869
0.7269957 -1.6449515 -1.7659727 0.5028734 0.26456094 -0.553217 0.2693785 -1.5576743
0.39672923 -0.5486549 -0.65034753 -1.4720399 0.07750445 0.29738703 0.080804296 0.18855563
00000000: d84a 9c3e fb99 1d3f eecd 18c0 a04b 3fbf
00000010: f487 83bf c6dd 853e 3cba 18bf 8da7 013f
00000020: cfef d03e 30a0 153f 7a81 c0bb 8ee3 b0bf
00000030: 7e16 8b3e 92b2 633e f340 81bf 9f9c 9fbf
00000040: 4f91 4ebf aab9 813d 8184 e33e fea3 83bf
00000050: 019d 003f d94a d43e fb5e 8ebf a286 2e3e
00000060: 0edb 9ebf 6a94 99bf c508 183e 4f01 87bf
00000070: 82b5 e23e 4628 07bd 7400 163e 9bed 193f
00000080: cfcd 183d e1aa ab3e 2b01 0cc0 d410 db3e
00000090: e89d 983e e7b9 933e c56b 86bf f891 d4bd
000000a0: 6493 9fbf 82e1 6cbf b10a 403f c1f6 463f
000000b0: 8849 58be d6d7 31bf 1377 973e 8a56 35be
000000c0: 7c3b d83e 3048 a23e 72d2 923f 15dc 40bf
000000d0: 0468 903e 1f71 d5bf 10f4 2e3e 8804 0ac0
000000e0: f389 ee3e b34b 71bf 3e0c 1dbf f08e f33b
000000f0: 38d3 ccbf dab6 8dbf daf2 213f 9d71 803e
00000100: bb82 0dbf 304b 88bf 3800 4d3e 41af 333f
00000110: 7a17 3a3f 687b 9cbf 8151 58bf de36 c1bf
00000120: 641c 3a3f c58d d2bf 650b e2bf 50bc 003f
00000130: 8874 873e a19f 0dbf fbeb 893e df61 c7bf
00000140: 1820 cb3e a674 0cbf 2d7d 26bf ce6b bcbf
00000150: a7ba 9e3d 1d43 983e b97c a53d ba14 413e

l3.bias f4 [11]
-0.08163481 0.019243764 -0.4715793 -0.1334762 0.35206348 0.3631895 0.2602515 0.48828444
-0.08091615 -0.2114705 -0.27383265
00000000: 2730 a7bd 19a5 9d3c d872 f1be fcad 08be
00000010: aa41 b43e f9f3 b93e af3f 853e 6b00 fa3e
00000020: 5eb7 a5bd b98b 58be cb33 8cbe
